model_weights.pth (torch, 347972 bytes, 6 tensors)

fc1.weight f4 [128, 607]
00000000: 33f2 9f3f 66f2 3c3f 7432 82bf 4b53 83bf
00000010: ee8a a43f 911a 063f bfc2 a0be 37fd 2d3e
00000020: ada9 113f 8011 b93e 4bac 01c0 32a9 2bbf
00000030: 41ab 8abe 05d0 0340 3ce5 a63c 5432 9a3f
00000040: 5e07 afbe 6bfb b6bf 43e3 303f d0cb e1bf
00000050: 4eae cdbe 6f0b 87bd d210 353f 643d 14bf
00000060: 04e0 f3be abd4 113f 674b 81bc 1792 acbf
00000070: e606 e1bf 5fc0 a2bf 2518 a83e e0eb f13f
00000080: 081d 6a3e 678f 873f 6c2d 64c0 9168 94bf
00000090: 30e1 8cbf a667 b7be 585c 8d3e 6efb 3ebf
000000a0: db74 5e3e d027 893c 0c21 863f e2f4 10be
000000b0: c911 de3f f702 01c0 b2b7 53bf 7018 b7be
000000c0: 7719 4b3f c571 46bf 0a46 a2be ce58 ad3e
000000d0: 5d64 873f 6df2 fc3e f7bf 47bf 0077 34be
000000e0: 573e 333e 58b1 f83f a267 303e 93c3 8dbe
000000f0: c92c a3bf b07e bfbf ffd1 4c3e 58af 973f
00000100: d953 7e3f 235f bfbf 11cc 16c0 b25a bbbf
00000110: 8284 8abe 4bcb c0bf e725 01bf 9c2a 8dbf
00000120: 04fd 80be 7d34 bf3c 055d d93e dbaf 34bf
00000130: 2110 d2bf 401d c13e 56a3 ea3f cda7 6a3f
00000140: 4df3 593f 12c4 8d3f 514e a7bf f1ab 04be
00000150: 21ef 2c3f 6348 12be 7198 bc3f 0ab2 c23f
00000160: 3a08 0440 296c 663f 0ab5 70be 5559 9c3e
00000170: 2bf3 acbf e069 863f 4cf0 40bf 0602 b73f
00000180: b30c a33f 7360 a03e 78d2 0ec0 6fdc e73f
00000190: 2bdf b93e 250a 89be 5439 76bf 80b7 aebf
000001a0: 0f7f 343e 3e16 0c3e 03b9 c83f f1f8 59bd
000001b0: aefd b2be 554b 873f 97d3 a93f 6bd7 03bf
000001c0: cc2c fc3f d3c0 e8bf 6f97 b3bf 184f e93c
000001d0: d0d1 2140 a6b6 e7be 8705 c53e d181 4d3f
000001e0: 74ea df3e 9a37 513e 9d4e 97be 8db8 7dbf
000001f0: f8b7 07bc c2c3 163f dc74 a2be 83fb 8c3f
00000200: e7b8 833f bb6e 24bf 482c 9dbf 8673 a83e
00000210: d5c4 3dbf f1c6 ac3f 2dd9 bfbf d3b9 883f
00000220: 6211 39bf 441a a7be e6da 02c0 2c04 f4be
00000230: 2ea4 bf3f 4f5d e33d c8c5 17bf a799 b83f
00000240: a542 47bf b52d 283e e31a 91bd beb0 543e
00000250: f240 523f 7251 15bf 776c 31be 350e c4be
00000260: df98 a83f 81bf 873f 674a 28bf 7b85 e9bc
00000270: 6323 9a3f 2458 933e 1552 3f3d 9c72 1dc0
00000280: 32b9 49bf aabc 79bf 11a1 99bf 5ec7 fbbf
00000290: 5020 4cbf 616a 583d 86a1 bc3e d464 f2bc
000002a0: 594c 34be 4de9 ad3f 4932 8cbf ed61 31bf
000002b0: 79c5 583f 905f 083f 24ba 9fbd 686d 22bf
000002c0: 95f0 aebf 38b1 7f3e 8cdd 883f 750d 0cbf
000002d0: 4c1b 3dbf 27d9 683e 60f2 b3be 6d1e 1a3f
000002e0: 71fa e8be 78e5 fcbe da3b 733f 2910 f33d
000002f0: 0e0a d53d 75f2 7dbf 0860 9d3f 6d49 c93f
00000300: 1d3a 2ebf 28bb 89be bedc 78bf 3b99 41be
00000310: bf49 a73f f42c 323f 9db9 dd3f 0915 21bf
00000320: 319f 75bf c572 79bf c783 2bbc 70e9 91bf
00000330: e8b9 923f 105b ec3f 7d0b 08be 55b2 2dbe
00000340: f511 28bf 2a88 5bbe aeee 1d3f ea65 08c0
00000350: a9d1 2bc0 e115 92be c8b4 ab3f 8915 e13e
00000360: 7739 8fbf 638f 01c0 55cc d8be 5e21 09bf
00000370: a9c6 87bf fd03 12bf 2db1 143f 5e21 e1be
00000380: b67f acbf e3b1 fcbe 33b4 13bf 87cc 083f
00000390: 6543 923e fe40 f63e 04be 6b3e b9fa f8bf
000003a0: 1d78 22c0 492a 873e a9f4 5dbe b2a9 593f
000003b0: 5b43 063f 417b 0bbf 4322 90be 1ca2 733d
000003c0: 224f d23f efe5 dc3e a870 f73e 3cfd 76be
000003d0: eec1 863e 601d 3b3e ef44 5a3f 916e fabf
000003e0: cad5 8f3f a1de c3bf 281f f6be 119f f13d
000003f0: 5606 bf3e 0034 513f 53f5 083f c7a4 b53e
1.2495788 0.7380737 -1.0171647 -1.0259794 1.2854898 0.5238429 -0.3139858 0.16991125
0.5689953 0.36146164 -2.026141 -0.67055047 -0.2708378 2.0595715 0.02037298 1.2046609
-0.34185308 -1.4295477 0.69096774 -1.7640324 -0.40172046 -0.06593978 0.7072879 -0.57906175
-0.47631848 0.5696513 -0.015783025 -1.3482083 -1.758023 -1.2714957 0.3283092 1.8900108
0.22862637 1.0590638 -3.5652723 -1.1594411 -1.1006222 -0.35821265 0.27609515 -0.746024
0.21724264 0.016742617 1.0478835 -0.14155915 1.7349178 -2.015806 -0.8270217 -0.35760832
0.7933573 -0.7751735 -0.3169406 0.33856815 1.0577503 0.49403706 -0.7802729 -0.1762352
0.1750425 1.9429121 0.17227033 -0.27688274 -1.2748042 -1.4960537 0.20001982 1.1850386
0.9934669 -1.4950908 -2.3562052 -1.4637053 -0.2705422 -1.506204 -0.5044846 -1.1028628
-0.25193036 0.023340458 0.4245378 -0.70580834 -1.6411172 0.37717628 1.8331096 0.91662294
0.8513687 1.1075461 -1.3070775 -0.12956215 0.6755238 -0.14285426 1.4734021 1.5210583
2.063002 0.9000879 -0.23506561 0.30536905 -1.3511709 1.050106 -0.75366664 1.4297493
1.273825 0.31323585 -2.231596 1.8114146 0.36303076 -0.26765552 -0.96181226 -1.364975
0.17626594 0.1368036 1.5681461 -0.053215925 -0.34959167 1.0569865 1.3267697 -0.51500577
1.9701171 -1.8183845 -1.4030589 0.028480098 2.528431 -0.45256537 0.3848078 0.8027621
0.4373356 0.20431367 -0.29552165 -0.9910973 -0.008283608 0.5889245 -0.31729782 1.1014255
1.0290803 -0.6423146 -1.2279139 0.32900637 -0.74128467 1.3498212 -1.4988152 1.0681709
-0.7229215 -0.32637227 -2.0446105 -0.47659433 1.4971979 0.111017816 -0.59286165 1.4421891
-0.77836066 0.16423686 -0.07085206 0.20770547 0.8213035 -0.583274 -0.17326532 -0.3829209
1.3171653 1.0605317 -0.6573853 -0.028506031 1.2042049 0.28778183 0.04670914 -2.4601202
-0.7879821 -0.97553504 -1.2002279 -1.9670217 -0.79736805 0.052835826 0.36841983 -0.029589094
-0.1760725 1.3586823 -1.0952846 -0.6929005 0.8467632 0.53270817 -0.077991754 -0.6344819
-1.366717 0.24969947 1.0692611 -0.54708034 -0.73869777 0.22739087 -0.35145855 0.60202676
-0.45503572 -0.4939382 0.950132 0.11868317 0.104023084 -0.99198085 1.2294931 1.5725533
-0.68057424 -0.269006 -0.97211826 -0.18906109 1.306938 0.69599843 1.732227 -0.6292272
-0.9594603 -0.9744075 -0.01046843 -1.1399364 1.1462984 1.846529 -0.13285632 -0.1696256
-0.656524 -0.21438661 0.6169232 -2.1312203 -2.6846716 -0.28532317 1.3414545 0.43961743
-1.1189412 -2.0243766 -0.42343393 -0.5356654 -1.0607501 -0.57037336 0.5808285 -0.4397077
-1.3476474 -0.49354467 -0.5769684 0.53437084 0.28567043 0.4809646 0.23021704 -1.9451514
-2.5385811 0.2639945 -0.21675362 0.8502456 0.52446526 -0.54484946 -0.2815114 0.05948077
1.64304 0.43144175 0.48328137 -0.24120039 0.26319832 0.18272924 0.85261434 -1.9564992
1.1237118 -1.5302316 -0.48070645 0.11797918 0.3730952 0.8171997 0.53499335 0.35477278

fc1.bias f4 [128]
00000000: 1a26 d53f f768 e0bf d797 bcbf 23f5 6b3e
00000010: e00f a7bf f43d 69be 9640 6cbf 78e8 62bf
00000020: 1d1a 8fbf d18b 553e 1baa 723e 8d5d 21bf
00000030: e75a 89bf 52d2 3abf 5e6b 403f 53a1 1abd
00000040: 5b04 44be f155 26bf 79b4 11bf 4dd1 e1be
00000050: a77a bf3e ce86 b9bf 58e7 c7bd 2c31 68bf
00000060: e1e8 cf3f f12a b2be 88a5 8b3e ce2e 153e
00000070: c008 fc3e 4cc3 0a3f 7ca6 65be b49d e5be
00000080: 9d6b fdbf dd3f 373f fe0a 893f e9ad 49be
00000090: 41ce f8bf 9d13 233e a555 ffbe f0ec dcbe
000000a0: a882 6bbf cb76 f8bd f4a9 703f 521b 0640
000000b0: 541e 8ebf db3c ac3f 2b09 a6be 2af5 9abf
000000c0: ca67 b53f 36b6 723e 8627 013f 3875 b1bf
000000d0: 58dc 343f b354 a3bf df0b 933f e3ce 02bd
000000e0: 31c0 2bbf 0cce 95bd aa5c 81bf 9240 b8be
000000f0: 9f19 acbf 42a1 a13f a2ff b4bd b5fd 0fc0
00000100: 39bc 943f 6008 5f3f fa44 4cbf 4513 8c3f
00000110: c88a a6be badb 443f 1d8b 763e a33e 8a3c
00000120: 13ae 81bf f952 383e dd01 a5bf c133 293f
00000130: c972 3a3e 6139 603f 1706 89bf dc05 4c3f
00000140: 319c 54bf 9290 6e3f e97f 243f 630e 85bf
00000150: 5f77 acbf 24f2 1b3f 9402 71be 78d5 b9bf
00000160: 3c95 36bf b0b6 91bd bb51 20bf 3140 6b3f
00000170: 6708 bbbe b1a4 52be 94be c13f ffee a23f
00000180: 18bb 07bf d12d 9c3e 17bb b7bf d554 453f
00000190: ff1f 9b3f 5fc0 0e3f 8d4c 4fbd 0118 9c3f
000001a0: 7c2f f83e 5c97 e1bf 17f5 3b3f a2ce 383d
000001b0: 1af5 e1bd 3aed f1bd 2f80 9bbf 2f24 e7be
000001c0: 6550 a5be 8e11 1f3d 8d93 583f 30b7 4b3f
000001d0: 7c74 173e 3ee8 a13e 5d76 9f3e b5fa 913e
000001e0: 3fd3 33bd 6dbe 3dbe 2ac4 0e3f e0ef 4e3f
000001f0: f4ff ba3f 6160 94bf aa6e 13bf 524e 2140
1.6652253 -1.7532033 -1.4733838 0.23042731 -1.305172 -0.2277754 -0.9228605 -0.8863597
-1.1179844 0.20854117 0.23697703 -0.6303337 -1.0730866 -0.72977173 0.7516383 -0.037751507
-0.19142286 -0.64974886 -0.56916004 -0.44104996 0.37398264 -1.4494264 -0.09760922 -0.9070003
1.6242944 -0.34798387 0.27274728 0.14568636 0.49225426 0.5420425 -0.2242679 -0.4484688
-1.9798466 0.7158182 1.070648 -0.19695248 -1.9437944 0.1592545 -0.4987003 -0.4314952
-0.9199624 -0.12132033 0.9400933 2.0954175 -1.1103005 1.3456072 -0.3242887 -1.2106068
1.4172299 0.2370232 0.5045093 -1.3863897 0.7064872 -1.2760223 1.1487998 -0.031935584
-0.67090136 -0.07314691 -1.0106404 -0.35986763 -1.3445319 1.2627337 -0.088378206 -2.24986
1.1619941 0.87122154 -0.7979275 1.094338 -0.32527757 0.76897776 0.24076505 0.01687557
-1.0131248 0.18000402 -1.2891194 0.66094595 0.1820785 0.87587553 -1.0704983 0.7969644
-0.8305083 0.93189347 0.64257675 -1.0395015 -1.3473929 0.6091635 -0.2353614 -1.451827
-0.71321464 -0.07114923 -0.6262471 0.91894823 -0.36529848 -0.20570637 1.5136285 1.2729186
-0.5301986 0.30503705 -1.435397 0.7708257 1.211914 0.55762285 -0.050610114 1.2194825
0.48473728 -1.7624316 0.7342085 0.045118935 -0.110330775 -0.118128255 -1.2148494 -0.45144793
-0.322879 0.0388351 0.84600145 0.79576397 0.14790529 0.316225 0.31144992 0.28511587
-0.04390263 -0.18529673 0.5576807 0.8083477 1.4609361 -1.1591913 -0.57590735 2.5204053

fc2.weight f4 [64, 128]
00000000: dcb0 c13f be06 8e3f ea97 aebe 5e2e d93e
00000010: 2814 38bf 92b3 75be 1c04 bcbd ea83 f2be
00000020: 6f1d 20bf b906 d6bf ae49 203e fb37 fe3c
00000030: 6d38 c73e d428 2ebf b8a9 85bc 5ba0 9ebf
00000040: de75 1c40 1dc9 91bf 483c cebf d935 e13e
00000050: 6069 17c0 3f00 d23f 5b13 a7bf 3524 523e
00000060: c416 b4bf dfde 903f 5cc4 953e a33a 9bbf
00000070: 13f7 98bf 1cb5 0dbf 34a7 5b3f 186e b53f
00000080: c388 41be f125 5bbe ea2f 33bf 5345 523f
00000090: 25f5 0b40 cdb0 99be 18c3 bf3e 35bc b9bf
000000a0: 60e7 553f 3777 5140 01f7 7abf 185e b1be
000000b0: ec27 09c0 c482 a73e f326 2bc0 6518 933f
000000c0: 6da3 b7bf f0de aa3e 5653 c1be 88e9 cd3e
000000d0: 4f09 41be 0c85 bebe 3637 dc3e 022e b73f
000000e0: 0627 e5be 3c95 4ebf 5806 c73e c4e7 c6bf
000000f0: 4f47 14bf 1389 7d3f 9db2 873c 3f16 84bf
00000100: 0de7 933c 3cf3 c2be 4f81 773f 6776 09be
00000110: 5eac fabe 52a8 64bf 2c58 7e3d fd6f 13bf
00000120: 528c 4e3f 16c3 c0bf 5585 4b3d aaa4 2bbf
00000130: 5b6f c33e d1e4 ce3f 524e 80bf 6fb0 efbd
00000140: 71cb 473f 21b0 863e 5e52 1bbf e64e 5ebd
00000150: 7b2e e9be 59b5 7b3f bd3f 1d3f 03cf 59bf
00000160: 70da 8d3f 35ea 9fbe 4613 65bf 1ad2 de3f
00000170: 64db 3f3f 6e1c 79be 9e9e aebf 7ccb b93f
00000180: 1a64 183f dfa7 2fbf f69b 343f 56a6 553f
00000190: c20b d43e 7025 41bf 81c5 21bd 691a c93f
000001a0: 7501 68be 5851 ef3f 0b39 c7bf 677d a3be
000001b0: 47e5 473f efca 643f a517 50bc 0df3 2e3f
000001c0: b160 d03f 3d6d 773f 24d6 f1be f8df 81bf
000001d0: 2eaa c9be 3f77 4dbf b252 9f3f 8214 5ebf
000001e0: d004 003a f885 bf3e e8b4 c13e 1b2e afbf
000001f0: 64f2 7f3f 9692 24bf cbaf 46bf a8f8 e63f
00000200: 820c c0bf d790 64bf f4af 493f 6058 933f
00000210: 5607 0b40 7e89 1d3f fdaa 12bf acfa 3f3d
00000220: 88fa 20bf 8b81 6bbd ceee 5c3f ebf5 bebe
00000230: 479b ff3f df37 b3bd f11f 0bc0 6aa3 4ebf
00000240: 9752 c0bd 72f9 8b3f 474a 06be 871b c23f
00000250: b017 063f 8334 6cbf 1497 44bf 3dd5 cdbf
00000260: b132 f83e 67c4 71be 9349 a8be 7505 4dbf
00000270: da6c f0be d616 3cbc 410b 32c0 da41 03c0
00000280: 23be 1d3e 41fe 6dbf 6b6b eabe 4bad 5c3f
00000290: 5a93 34c0 6053 2f3f e3b6 7b3e 2d7b 82bf
000002a0: 94e2 463e d37b 83be db69 1cc0 2ac5 ebbf
000002b0: 1381 3e3f 97cf d73d fa7f 733d 66e7 4fbf
000002c0: e24c b5bd 9478 84bf b0f8 55be ae7c d73f
000002d0: 01c1 8fbe 8c93 0cc0 c2ea 12bf b44d 403d
000002e0: 8704 d6be f0bb e5bf 39cd bebf 6247 15be
000002f0: ee48 a5be 3ab3 82bf a9da 1ebf 73c2 92be
00000300: 5de7 c1bf e030 023f a18f 6340 38a8 7d3f
00000310: 08ad 703f 91ff b2bf 0660 c23f c82b 243d
00000320: 2cd1 84be 4bcf 0b3f 1fc4 4dbd 1697 3c3e
00000330: 8fee 91bf 6ca0 093e ab3c 0140 8afa 7ebe
00000340: 698a 843e 6799 91bf 77f0 47be 8955 b7be
00000350: 990d 5bbf 28fe 853e 36f9 05bf 7340 a13f
00000360: d2fe 92bf 573c 82bf b5c5 9d3f bfb5 883f
00000370: 3225 a2bd bc57 df3f c00e 35be ceaa c1be
00000380: 8669 f73d 3a62 cbbe 9b8f 643f 809e 693f
00000390: b672 c5bf 1738 e1bf eed6 9f3f 02f8 afbf
000003a0: 8ace 0540 f796 36be e2d0 8c3f aa38 b3be
000003b0: da31 0bbf 2641 52bf 4253 bc3e 6e07 b8bf
000003c0: 1478 92bf dd89 f63e 20cb a83f 4be6 a53f
000003d0: 59c1 1c3e 8d81 1f3f ed1c 853f 7d3c 063f
000003e0: 5040 5f3f 8c8b fe3f 9d68 65be c0ed 1c3f
000003f0: b84c 183f b1b1 a6be a7dd 93bf 6105 84bf
1.5132098 1.1095808 -0.34100276 0.42418188 -0.71905756 -0.23994282 -0.09180471 -0.47366267
-0.6254491 -1.6720802 0.15653107 0.031032553 0.38910237 -0.6803105 -0.01631628 -1.2392687
2.444694 -1.13895 -1.6112146 0.43986395 -2.3658066 1.6406325 -1.3052782 0.20521624
-1.4069448 1.1318015 0.29251373 -1.212727 -1.1950401 -0.55354476 0.85802007 1.4174223
-0.18899827 -0.21401192 -0.69994986 0.8213703 2.1868374 -0.300177 0.37453532 -1.4510561
0.83556175 3.2729013 -0.9803315 -0.346421 -2.1430616 0.32716954 -2.6742523 1.149182
-1.4346749 0.33373213 -0.37758893 0.40217233 -0.18851207 -0.37210882 0.43010873 1.4310915
-0.44756335 -0.80696464 0.38872027 -1.5539479 -0.5792131 0.99037284 0.016564662 -1.0319289
0.01805451 -0.38076198 0.96681684 -0.13424073 -0.4895963 -0.89319336 0.062095806 -0.57592756
0.8068286 -1.5059536 0.049687702 -0.6704813 0.38170895 1.6163579 -1.0023901 -0.11703574
0.780448 0.2630625 -0.6067256 -0.054274462 -0.45543274 0.9832359 0.6142538 -0.850815
1.1082287 -0.31233373 -0.89482534 1.7407868 0.7494414 -0.24327251 -1.3642156 1.4515224
0.5952774 -0.68615526 0.7055048 0.83456933 0.4141522 -0.7544775 -0.039494995 1.5711185
-0.22656806 1.8696699 -1.5564283 -0.31931612 0.78084224 0.8937215 -0.01270095 0.68339616
1.6279508 0.9665106 -0.4723369 -1.0146475 -0.3938765 -0.8026008 1.2447112 -0.8675004
0.00048835296 0.37406898 0.37833333 -1.3685945 0.99979234 -0.6428617 -0.7761199 1.8044634
-1.5003817 -0.8928351 0.7878411 1.1511345 2.1723228 0.6153792 -0.5729216 0.04686992
-0.6288228 -0.05749659 0.8630189 -0.37296996 1.9969262 -0.08750891 -2.1738245 -0.807181
-0.09390753 1.09355 -0.13114272 1.5164651 0.52379894 -0.92267627 -0.76793027 -1.60807
0.48476174 -0.23610078 -0.32868633 -0.8008645 -0.46958047 -0.011480054 -2.781937 -2.0508943
0.15404563 -0.92966086 -0.45785078 0.86201924 -2.8214936 0.68486595 0.24581484 -1.019384
0.1942237 -0.25680408 -2.443961 -1.8419545 0.744157 0.105376415 0.05944822 -0.8121246
-0.08852555 -1.0349298 -0.20895648 1.6834924 -0.28076938 -2.1965055 -0.5738946 0.046949103
-0.4180033 -1.7947979 -1.4906379 -0.14578012 -0.32282203 -1.0210946 -0.620524 -0.28663978
-1.5148731 0.5085583 3.5556414 0.99084806 0.94014025 -1.3984243 1.5185554 0.040080816
-0.25940835 0.5461318 -0.050235864 0.1841701 -1.1400927 0.13440102 2.0193279 -0.2490026
0.2588685 -1.137494 -0.19525324 -0.35807446 -0.85567623 0.26170468 -0.5233339 1.2597793
-1.1484015 -1.0174664 1.232596 1.0680465 -0.07917251 1.744865 -0.17681408 -0.37825626
0.12080674 -0.39723378 0.89281625 0.91257477 -1.5425632 -1.7595242 1.2487466 -1.3747561
2.0907311 -0.17831026 1.1001246 -0.3500417 -0.5437294 -0.8213066 0.3678227 -1.4377267
-1.1442895 0.48152056 1.3186989 1.2960905 0.15308131 0.62307054 1.0399452 0.5243605
0.8720751 1.9886336 -0.22403188 0.6130028 0.59492064 -0.32557443 -1.1552018 -1.0314142

fc2.bias f4 [64]
00000000: f640 8a3f 61c9 a23f f088 963f 33ae 81bf
00000010: e7c3 69bf f910 9dbf 2861 d8bf a4d8 a9bd
00000020: 0e2d 9ebf af8b 01bf c60f 993f af8b 263f
00000030: 1a91 9b3f ab57 86bf 5543 8fbf dac3 ea3e
00000040: 4369 aa3f 6bed 843f b756 513f 14cc a8bf
00000050: d697 8c3f 00f0 1d3f b44b 703f 6cc0 8a3f
00000060: ccf3 bdbf 7a09 6f3f a033 26bf 68ce 213f
00000070: 7ea3 e2bf 0eda 053f 9829 ea3e dcb2 fbbd
00000080: 28ee 463f cdbb bebf f0dd 77bf 4101 7a3f
00000090: 2ebf 513f 7b2e 55bf 988f 6cbd 8e20 15bf
000000a0: 5e8b 173f 73eb de3c d8aa 47bf e546 36bf
000000b0: 3d3b da3e d623 58be 71b7 a2bd c037 a93f
000000c0: da7c cd3f ec60 813e 5eb4 fe3d 54ed abbf
000000d0: 6e17 e0be 6c60 1140 55dd 083e d317 24bf
000000e0: a515 4b3f 2b12 6bbd 202b c7bc 15af 593f
000000f0: 823c a9be d3a7 e6bc 733d 3b3e adf2 923f
1.0801075 1.2717706 1.176054 -1.0131286 -0.9131455 -1.2270805 -1.690465 -0.08293274
-1.23575 -0.50603765 1.1957939 0.6505689 1.2153656 -1.0495504 -1.1192423 0.45852548
1.3313373 1.0384954 0.8177294 -1.318728 1.0983837 0.61694336 0.93865514 1.0839972
-1.4840026 0.93373835 -0.64922523 0.63205576 -1.7706144 0.5228585 0.4573486 -0.12289974
0.7770715 -1.4901062 -0.96823025 0.97658163 0.8193234 -0.8327405 -0.05775413 -0.582528
0.5919703 0.02721188 -0.7799506 -0.71201926 0.4262332 -0.2110742 -0.07945145 1.3220139
1.6053727 0.25269258 0.12436746 -1.3431802 -0.43767875 2.2715101 0.13365681 -0.6409885
0.793299 -0.057390373 -0.024312556 0.8503278 -0.33053976 -0.028156197 0.1828516 1.1480309

fc3.weight f4 [4, 64]
00000000: 7864 03bf 3d92 bcbf 5a3f d1be 4781 ea3f
00000010: 096e 5cbf 6515 8ebe bd83 b43f 3ea8 f0bf
00000020: cfe8 323e df5d d53f e1a5 4b3f 4a12 b63f
00000030: 2185 40bf f5e8 1b3f 8f61 4a3e 46df 453e
00000040: 91ac abbf 8e0e 55be 339a b4bf edca 3abf
00000050: da5c 86be 7d1d 373e b191 74bf 2ebd 5fbf
00000060: 5882 003f 5836 963f f42e 963f 91eb c13e
00000070: fd8e d73e b4e4 323f e772 2a3f 9194 183e
00000080: 0372 f2bf 7733 44bf a9b4 8ebf 7c8d 29c0
00000090: 9a02 57bf cd50 a4bf 88ba 56bf 50f9 843e
000000a0: c694 f1be 9dfe 1dbf 1544 b23f 2c60 753f
000000b0: 0597 94bd 0649 6b3f 8e54 0540 371b 2fbf
000000c0: 116a 1abe ce97 1d3e 0c6a 39bf b8b4 0abf
000000d0: d807 8fbe 27b0 20bf 83df a9bf 41ca 863f
000000e0: aba4 20bf 41d0 81bf e268 5dbf 0c4f 1f3f
000000f0: 5c13 703b 014e e23e 5668 2c3f 1520 973f
00000100: 36da 18bf b152 f13f 5d72 a13f 15d7 95be
00000110: d5ea 11bc 862b 28bf 0a65 8ebf 2148 6cbd
00000120: 213e bdbe 37c2 d7bf a2f0 afbe 95a3 b0be
00000130: 1fa0 65be fc10 27bf 0f4a 87bf 3aeb b93e
00000140: 1233 9bbe 4f37 55be 730a 8e3f fac6 1a3f
00000150: 0ea4 9b3f 1c4f a43f f051 b83c 7272 e4bf
00000160: 6357 973e de43 1ebf 9f1a 293e e837 173f
00000170: 3688 0340 3313 71be 2320 dd3e f7a5 a33f
00000180: 04b8 bcbf a446 49bf c257 963f 80e6 2a3f
00000190: e047 833f ccfd a33e 09b8 abbf 9ffd 3c3f
000001a0: fb77 55be 39b0 03bf 9293 43bf 09f9 dc3f
000001b0: 4cb1 e3bf cd99 913f 51e3 163f 208d 40c0
000001c0: 80dd 89be 6f77 953f 53ae 72bf 2857 02bf
000001d0: 8219 16bf 74c0 243f 597a 6abf 912e dc3e
000001e0: 4968 003e cda8 51bf a0f7 cb3f 8e5d 4cbf
000001f0: 0236 c8be a3ae 57be ec95 9abf cd38 24bf
00000200: cb8b 1540 09ce eebe 6c12 f03c 3aff b5be
00000210: bd89 e23f 9c85 bfbe a916 523f db5d d2be
00000220: e82e c1bf b6f3 25bf 93c8 f03e 23fa 703f
00000230: 53cf 1c40 851e 9d3f 3768 f03f 24ec 853f
00000240: 0769 853e f9bf eebd d839 46bc 5f23 063f
00000250: 11fa 513f 4ec2 9bbf 7fb7 58bf 79ad a93e
00000260: 3682 3cbe dd33 39bf 9f37 a53e 17dd 32bf
00000270: 2b76 e43f eb58 d9bf 8ca4 08be 4d8c 8e3e
00000280: 1973 bfbe d7f4 e6bf 7e0e 913f 5c5a 65bf
00000290: 8f0c 4d3f 4ee1 e9bf 76ad 5a3f da3c f83f
000002a0: d6ab 9bbd 1c40 cabe 46b7 d6be bdcd de3e
000002b0: 23b2 e1bf 9b2a 2abf 4751 2cbf 17dd 9b3f
000002c0: 9f83 3dc0 5ace c9bf c696 683e 6367 30c0
000002d0: b7b5 cc3e 1c7d 91be a43a 153f fb6c 25bf
000002e0: f097 1dbf 11a8 ddbf 03ec adbe bc7d 473f
000002f0: 5045 d13f 28c6 7a3e 64d2 0bbe 44ad f4be
00000300: 2f36 83bf 1972 b6bf c798 3e3e ea00 e3be
00000310: 4e27 c53d 3a8a 753f 3dde 8a3f 691d fcbc
00000320: 86f1 473f fff1 08c0 6a1d 943f f9ba 1cbf
00000330: e55f da3e b053 6b3f c75d e0be ba05 b43f
00000340: f99d c2bf a730 0bc0 7f06 f63e 9928 d23e
00000350: ac93 cfbe 094d 633f d9cc a73c ce21 5d3f
00000360: 29f8 97bf 3a23 b3be 6ffc 05bf 484b 0240
00000370: cc68 6ebf b1a1 03bf 5657 ed3e 2a2a 2abe
00000380: cf95 07be 831c 9b3f c29a b23f 572c dc3f
00000390: 347c 153f 1836 113f 1fd2 86be 0d99 17bf
000003a0: 884f 013f 3bce a43e e5f1 c33f f6fe 393f
000003b0: 8c91 eb3d d4c1 843f 8a91 4bbf 64cf 11c0
000003c0: 57a6 9ebf dbb8 59be 2a41 10bd 7b97 253e
000003d0: 58df a2be 44fe d3bd 69e4 253f 591c bbbf
000003e0: c0a7 8d3f 20f6 793e 9d19 fabd e362 1f3b
000003f0: 0ee5 4f3f 8f65 bbbe 8728 ae3e a391 7e3f
-0.5132518 -1.4732128 -0.40868646 1.8320702 -0.861054 -0.27750698 1.4102703 -1.8801343
0.17471622 1.6669272 0.79549986 1.4224331 -0.7520314 0.6090234 0.19763778 0.19323453
-1.3412038 -0.20806333 -1.4109558 -0.7296589 -0.26242715 0.17882343 -0.9553481 -0.8739804
0.5019889 1.1735334 1.1733079 0.37875035 0.4210128 0.69880223 0.6658158 0.14900424
-1.8941044 -0.7664103 -1.1148883 -2.6492605 -0.83988345 -1.2837158 -0.83878374 0.2597146
-0.47183818 -0.61716634 1.3927027 0.9584987 -0.07255367 0.919083 2.0832858 -0.684009
-0.15079524 0.1538994 -0.7242744 -0.54182005 -0.27935672 -0.6276879 -1.3271335 1.0530473
-0.62751263 -1.0141679 -0.86488163 0.6222999 0.0036632633 0.44200137 0.67346704 1.1806666
-0.59707963 1.885336 1.2613026 -0.29265657 -0.008906086 -0.6569141 -1.1124585 -0.057685975
-0.36961463 -1.6856145 -0.34363276 -0.34499803 -0.22424363 -0.6526029 -1.0569476 0.36312276
-0.303124 -0.2082188 1.1096939 0.60459864 1.215944 1.2836642 0.022500008 -1.7847426
0.29558858 -0.6182231 0.16514061 0.5906968 2.0551887 -0.2354248 0.4318858 1.2785023
-1.4743657 -0.78623414 1.1745532 0.66757965 1.025631 0.3202957 -1.3415538 0.73824495
-0.2084655 -0.5144077 -0.7639705 1.72635 -1.7788482 1.1375061 0.5894061 -3.0086136
-0.26926804 1.1677073 -0.9479725 -0.5091424 -0.5863267 0.6435616 -0.9159294 0.43004277
0.12539782 -0.81898195 1.5934944 -0.79830253 -0.39103705 -0.21062712 -1.2077003 -0.6414917
2.3366573 -0.46641567 0.02930566 -0.35546285 1.7698284 -0.37406623 0.82065827 -0.4108723
-1.509244 -0.64825 0.47028026 0.9413168 2.450154 1.2274939 1.8781804 1.0462689
0.26056692 -0.1165771 -0.012098752 0.5239772 0.82022196 -1.2168672 -0.8465499 0.33140162
-0.18409047 -0.7234476 0.32268998 -0.69868606 1.7848562 -1.6980261 -0.1334402 0.27841416
-0.373925 -1.8043469 1.1332548 -0.89591 0.8009729 -1.8271883 0.8542093 1.939357
-0.076011345 -0.39502037 -0.41936702 0.4351634 -1.7632488 -0.6647126 -0.6731152 1.2176846
-2.9611585 -1.5766098 0.22713766 -2.7563102 0.39982387 -0.28415763 0.58292603 -0.64619416
-0.61559963 -1.7316915 -0.33969125 0.7792623 1.6349277 0.24489653 -0.13654476 -0.4778844
-1.025091 -1.425357 0.18612967 -0.44336635 0.096266374 0.9591404 1.0849072 -0.030775743
0.7810291 -2.1397703 1.1571476 -0.612228 0.42651287 0.9192457 -0.43821546 1.4064248
-1.520446 -2.1748445 0.4805183 0.410466 -0.40542352 0.8878942 0.020483421 0.86379707
-1.1872607 -0.34987813 -0.5233831 2.0358448 -0.9312866 -0.51418597 0.46355695 -0.16617647
-0.13240741 1.2118076 1.3953478 1.7201031 0.58392644 0.56723166 -0.26332185 -0.5921791
0.5051198 0.3218859 1.5308195 0.72654665 0.1150237 1.0371652 -0.7951895 -2.278283
-1.2394513 -0.21261923 -0.035218395 0.16171066 -0.31811023 -0.10351232 0.6480165 -1.4618026
1.1066818 0.24410295 -0.122119166 0.0024320416 0.81208885 -0.3660092 0.34015295 0.99440974

fc3.bias f4 [4]
00000000: 2c6b 1fbe afcc 8c3d 6c6d 0b3f f95f a93f
-0.15568227 0.06874978 0.5446384 1.3232414
